SILab07 - Reinforcement Learning/saved_models/FrozenLake/QAgent/run-2024-04-26_20-14-50/model_best.npy (npy, 928 bytes, 1 tensors)

array f8 [25, 4]
0.0 0.0 0.0 0.0 343.23339480351416 165.11096497554553 256.62735063114064 898.6996083215266
65.60378451560923 48.82340006556981 64.06545544203979 756.3945385515651 22.91266406337722 99.44635219178423 132.2300316028453 574.8989077361123
13.250829234832484 20.156018133399744 8.922963545839012 213.6781162381081 0.0 0.0 0.0 0.0
716.7803474298529 -76.46904094857842 54.046905105121596 -385.86660220500005 599.6470776935485 73.02015049333312 69.26462038102547 140.87083831970227
288.8806170672234 -1.0816497237157214 14.494378147083868 32.77148977363653 135.49245537079264 -0.9549255607854962 1.0804389544769917 1.740555045769573
-423.7393809792199 135.3590046897252 -217.15942767291747 -193.71249414031018 41.213641806257414 53.69813849988216 422.8515788989755 43.36695272590017
493.73678720550595 -2.576454622201002 -0.7217391939284146 34.42561065091723 140.11928877950297 -272.355 -90.86384599972764 -101.04010845
-0.5 -0.5 -0.3330022807171006 18.661918261073076 37.0294462804102 39.54430413692993 268.2032011057295 -10.640469482083406
317.7667561748479 -9.205556937448971 32.88956819810173 16.05418679133108 156.27585751641055 -143.14859503162538 -269.6510250808122 -73.18023166575608
0.0 0.0 0.0 0.0 -0.5 0.0 0.0 0.0
208.20205347319214 -2.7277307407151543 -13.601845419572175 -19.79838572129716 -34.98371996686941 -43.79280703751359 -40.5408558210687 90.48707508866617
-195.06159487481256 -255.5607977777169 -223.99306412299637 -136.80453450190117 0.0 0.0 0.0 0.0
0.0 0.0 0.0 0.0
00000000: 0000 0000 0000 0000 0000 0000 0000 0000
00000010: 0000 0000 0000 0000 0000 0000 0000 0000
00000020: 6582 30fc bb73 7540 069f 6b06 8da3 6440
00000030: fcbd d0a0 090a 7040 bb67 3fcc 9815 8c40
00000040: dd17 cf67 a466 5040 c392 602c 6569 4840
00000050: feb9 056c 3004 5040 deff d303 28a3 8740
00000060: 8c70 205a a4e9 3640 848d c808 91dc 5840
00000070: 8b68 3c6b 5c87 6040 ca05 8af6 30f7 8140
00000080: f2f8 80b0 6c80 2a40 ed88 eccd f027 3440
00000090: b98e 89ad 8ed8 2140 f231 d320 b3b5 6a40
000000a0: 0000 0000 0000 0000 0000 0000 0000 0000
000000b0: 0000 0000 0000 0000 0000 0000 0000 0000
000000c0: e315 cb26 3e66 8640 44a8 53c4 041e 53c0
000000d0: a041 8afc 0006 4b40 de11 469a dd1d 78c0
000000e0: 18de 1137 2dbd 8240 4c77 4b25 4a41 5240
000000f0: 0197 528a ef50 5140 32e7 52e8 dd9b 6140
00000100: 6200 ec01 170e 7240 2362 d1f0 6f4e f1bf
00000110: 222a eb21 1ffd 2c40 d27b 492d c062 4040
00000120: 6809 c431 c2ef 6040 7505 b60c c08e eebf
00000130: 8cd9 6c5b 7a49 f13f 567d 673f 50d9 fb3f
00000140: 8b50 2681 d47b 7ac0 5f2f 67f7 7ceb 6040
00000150: 4128 1008 1a25 6bc0 2ae7 82c0 cc36 68c0
00000160: 8c77 5d9d 589b 4440 4489 349a 5cd9 4a40
00000170: 0411 3211 a06d 7a40 ab75 924e f8ae 4540
00000180: 267c 61e1 c9db 7e40 c8d9 af3d 949c 04c0
00000190: 043f 45cb 7c18 e7bf 6742 e968 7a36 4140
000001a0: d7d7 b336 d183 6140 48e1 7a14 ae05 71c0
000001b0: 1567 bb40 49b7 56c0 c542 0823 9142 59c0
000001c0: 0000 0000 0000 e0bf 0000 0000 0000 e0bf
000001d0: 4e18 4bcc e84f d5bf 1eef a379 73a9 3240
000001e0: e2ac 4de5 c483 4240 8598 09c2 abc5 4340
000001f0: e879 cd4f 40c3 7040 c144 af9d eb47 25c0
00000200: a56f 1fa2 44dc 7340 569e 47c2 3e69 22c0
00000210: 4c34 e75e dd71 4040 65a4 802f df0d 3040
00000220: da6a 24d3 d388 6340 bb25 5e4a c1e4 61c0
00000230: 6d6f 4699 6ada 70c0 1088 65ea 884b 52c0
00000240: 0000 0000 0000 0000 0000 0000 0000 0000
00000250: 0000 0000 0000 0000 0000 0000 0000 0000
00000260: 0000 0000 0000 e0bf 0000 0000 0000 0000
00000270: 0000 0000 0000 0000 0000 0000 0000 0000
00000280: e96c d838 7706 6a40 d452 9d7e 64d2 05c0
00000290: aa9e 3415 2534 2bc0 8e90 b201 63cc 33c0
000002a0: 2b10 2f89 ea7d 41c0 6b14 75b3 7ae5 45c0
000002b0: b0ab 77c3 3a45 44c0 1f21 fe3c 2c9f 5640
000002c0: 7a9d d095 f861 68c0 d65e 2e0e f2f1 6fc0
000002d0: 3663 692e c7ff 6bc0 6ac5 23bf be19 61c0
000002e0: 0000 0000 0000 0000 0000 0000 0000 0000
000002f0: 0000 0000 0000 0000 0000 0000 0000 0000
00000300: 0000 0000 0000 0000 0000 0000 0000 0000
00000310: 0000 0000 0000 0000 0000 0000 0000 0000
