SILab07 - Reinforcement Learning/saved_models/FrozenLake/QAgent/run-2024-04-26_20-14-50/model.npy (npy, 928 bytes, 1 tensors)

array f8 [25, 4]
0	0x0000000000000000	0.0
1	0x0000000000000000	0.0
2	0x0000000000000000	0.0
3	0x0000000000000000	0.0
4	0x4080313aed606f78	518.1537730726259
5	0x40723be939125088	291.74443919328814
6	0x40759e046e3924fa	345.87608167955443
7	0x408e6d789badd402	973.6838906841588
8	0x40680bfe07b2812b	192.37475952972576
9	0x404869652c6092c3	48.82340006556981
10	0x40642398e07c384e	161.1124117304011
11	0x408898cc33d5637f	787.0997082396497
12	0x4055283f5689c11f	84.62886584713532
13	0x405fd7fd6aac030c	127.3748423270992
14	0x4064f45297d2b9ce	167.63508216054328
15	0x4083f5b56e064734	638.7135887613754
16	0x402a806cb080f8f2	13.250829234832484
17	0x403427f0cdec88ed	20.156018133399744
18	0x4021d88ead898eb9	8.922963545839012
19	0x40729890eac64221	297.5353801483598
20	0x0000000000000000	0.0
21	0x0000000000000000	0.0
22	0x0000000000000000	0.0
23	0x0000000000000000	0.0
24	0x408137060d3c05d6	550.8779549302369
25	0xc0531e04c453a844	-76.46904094857842
26	0x404b0600fc8a41a0	54.046905105121596
27	0xc0781ddd9a4611de	-385.86660220500005
28	0x40857e5b767757c9	687.7946595500626
29	0x4068e11140e12b40	199.03335613230047
30	0x405150ef8a529701	69.26462038102547
31	0x406ad963fdc0c84c	214.79345595982375
32	0x407a67ff890f9410	422.4998865707903
33	0xbff14e6ff0d16223	-1.0816497237157214
34	0x402cfd1f21eb2a22	14.494378147083868
35	0x4047ca8c4c5c981e	47.582406563961044
36	0x4062c92a1912d42e	150.28638890912538
37	0xbfee8ec00cb60575	-0.9549255607854962
38	0x3ff1497a5b6cd98c	1.0804389544769917
39	0x3ffbd9503f677d56	1.740555045769573
40	0xc07e1dd8daa27bb0	-481.8654428812979
41	0x40687a033a5c84db	195.81289403982268
42	0xc06b251a08102841	-217.15942767291747
43	0xc06836ccc082e72a	-193.71249414031018
44	0x4050717525f10d99	65.77277515926689
45	0x405ec0600a0b67fe	123.00586176980866
46	0x407bd80323bbfad9	445.5007665007557
47	0x404c1d1275ac3963	56.227125844091255
48	0x407fef615d0895c0	510.9612703643179
49	0x405032cd2ca73630	64.79377285317673
50	0xbfe7187ccb453f04	-0.7217391939284146
51	0x405f86a7caecee1c	126.1039912523051
52	0x406f01440ee8fc08	248.03955789093766
53	0xc07105ae147ae148	-272.355
54	0xc056b74940bb6715	-90.86384599972764
55	0xc045f1822964ed3a	-43.88678471973476
56	0xbfe0000000000000	-0.5
57	0xbfe0000000000000	-0.5
58	0xbfd54fe8cc4b184e	-0.3330022807171006
59	0x404161ed2a75e58c	34.7650502277057
60	0x405b12ad2d2f4e84	108.29181985492511
61	0x40555d61eeb48739	85.45910232190808
62	0x406dd43629f7bf61	238.6316118086643
63	0x402490407622da37	10.281741801981395
64	0x40748d51e62c2de5	328.8324949002984
65	0x4009614a6da5b698	3.1725052419850037
66	0x40551e5309956cf4	84.4738182028994
67	0x40429cb42f7a298c	37.22424882378536
68	0x407073d1c8914dcb	263.2387166667874
69	0xc058bb4f12a97c06	-98.92670122672288
70	0xc070da6a99466f6d	-269.6510250808122
71	0xc0524b88ea658810	-73.18023166575608
72	0x0000000000000000	0.0
73	0x0000000000000000	0.0
74	0x0000000000000000	0.0
75	0x0000000000000000	0.0
76	0xbfe0000000000000	-0.5
77	0x4038800000000000	24.5
78	0x0000000000000000	0.0
79	0x0000000000000000	0.0
80	0x4067b497b75567eb	189.6435200374684
81	0x402d2b06c80d63df	14.58403611339048
82	0x4043f79098328d98	39.934100174602634
83	0x4048e0c4ecd273b8	49.756009676704195
84	0xc0417dea892f102b	-34.98371996686941
85	0xc045e57ab375146b	-43.79280703751359
86	0xc044453ac377abb0	-40.5408558210687
87	0x4060a376b9c002db	133.1082428693979
88	0xc06861f895d09d7a	-195.06159487481256
89	0xc06ff1f20e2e5ed6	-255.5607977777169
90	0xc06bffc72e696336	-223.99306412299637
91	0xc0406192f78ffce8	-32.76229757815037
92	0x0000000000000000	0.0
93	0x0000000000000000	0.0
94	0x0000000000000000	0.0
95	0x0000000000000000	0.0
96	0xbfe0000000000000	-0.5
97	0xbfe0000000000000	-0.5
98	0xbfe0000000000000	-0.5
99	0xc059200000000000	-100.5
