SILab06- Neural Nets/my_model.pkl (torch, 12550 bytes, 9 tensors)

layers.0.weight f4 [16, 2]
0	0x3ed6b9f1	0.41938737
1	0x411396c6	9.22431
2	0xbf676a76	-0.9039682
3	0xbf9975a7	-1.198903
4	0x400c35dc	2.1907873
5	0xbf0fdf5d	-0.562002
6	0x403f666b	2.990626
7	0xbeb33c93	-0.35007152
8	0x400d5a3d	2.2086327
9	0xc0fa9ca7	-7.8316226
10	0x40ba8f4c	5.8299923
11	0xc0a4f444	-5.1548176
12	0x41314fd2	11.081987
13	0x400a9334	2.1652346
14	0xc03281c2	-2.7891698
15	0xc1028f0c	-8.159924
16	0xbd886d27	-0.06661444
17	0x3deaca1c	0.114643306
18	0xbf087720	-0.5330677
19	0xbf465a7f	-0.77481836
20	0xc0143be8	-2.3161564
21	0x3fbeaf0e	1.4897172
22	0xc099c5a1	-4.8053746
23	0x3fb19132	1.3872435
24	0x405ceef8	3.4520855
25	0xc0f0578c	-7.510687
26	0x40c8e50b	6.2779593
27	0x40223629	2.5345557
28	0x3fdf3144	1.743691
29	0x3ea00f77	0.312618
30	0x4016e756	2.3578696
31	0xc047c0b6	-3.1211371

layers.0.bias f4 [16]
0	0xc028142e	-2.6262317
1	0x3f4fddb1	0.8119765
2	0x4000598c	2.0054655
3	0x4029ed98	2.6551266
4	0xbfd50217	-1.6641263
5	0xbfbbddd1	-1.4677068
6	0xc0631b4e	-3.5485415
7	0xbf4e3366	-0.8054718
8	0xbf3098ed	-0.68983346
9	0x3e029988	0.1275388
10	0x3f0e2772	0.5552894
11	0xbffc4aae	-1.971029
12	0xc09422d6	-4.6292524
13	0x3f3ee65e	0.7457026
14	0x3f8d1c8c	1.1024337
15	0x403c7c91	2.945103

layers.1.weight f4 [32, 16]
0	0xbe94383b	-0.2894915
1	0xbd1f9625	-0.03896155
2	0xbe14ba98	-0.14524305
3	0xbe9d4cca	-0.30722648
4	0x3e0cdc09	0.13755812
5	0x3d6eb8f6	0.05828186
6	0x3e3531ec	0.17694825
7	0xbcc491f4	-0.023995377
8	0x3bdd5240	0.0067541897
9	0xbd4dac19	-0.050212953
10	0x3dfa9222	0.12234904
11	0x3e3398c7	0.17538749
12	0xbe379864	-0.17929226
13	0x3e0eaa62	0.13932183
14	0xbdb7a1b5	-0.0896639
15	0x3d289abe	0.0411632
16	0x3edcc33c	0.43117702
17	0xbf164e56	-0.5871328
18	0xbc917a74	-0.017758586
19	0xbe1169ca	-0.14200512
20	0xbcd9814a	-0.026550908
21	0xbe7a4f3b	-0.24444287
22	0xbea92453	-0.33035526
23	0xbd87eebc	-0.06637332
24	0x3d70cfa8	0.058791786
25	0xbd8ed535	-0.0697426
26	0xbeb15dfd	-0.3464202
27	0xbe96a84d	-0.29425278
28	0x3dd398a8	0.10331851
29	0x3eee0956	0.46491498
30	0xbe332c19	-0.1749729
31	0xbf0cb2f9	-0.5496059
32	0xbe38b13a	-0.18036357
33	0x3d94fe78	0.072750986
34	0x3d893eb9	0.067014165
35	0xbdef5c5d	-0.11687539
36	0xbde76018	-0.11297625
37	0x3dbcf7e0	0.09226966
38	0xbdfca700	-0.1233654
39	0x3df76ee1	0.12081695
40	0x3e098082	0.13427928
41	0xbe341186	-0.1758481
42	0x3dedfcdb	0.11620494
43	0xbe148f22	-0.14507726
44	0xbd8fd6e4	-0.07023409
45	0xbe48ba78	-0.19602382
46	0xbe66ba21	-0.2253194
47	0xbe19d021	-0.15020801
48	0x3fda1bb2	1.7039702
49	0xbf90a28e	-1.1299608
50	0xbf2e084d	-0.67981416
51	0xbf3d59a9	-0.73964936
52	0x3dd064dc	0.101754874
53	0x3dabd1be	0.083896145
54	0x3f91ce59	1.1391097
55	0xbd15051d	-0.03638183
56	0xbe24d248	-0.16095841
57	0xbe9eae75	-0.30992475
58	0xbf97e524	-1.1866803
59	0xbd4f4ee8	-0.05061236
60	0x3e5e9ddf	0.2173991
61	0x3efd8b57	0.4952037
62	0xbe58ac3c	-0.21159452
63	0xbf8e40f1	-1.1113569
64	0x3e6d7764	0.23190075
65	0xbe5b321c	-0.21405834
66	0xbe539129	-0.20660843
67	0xbe5c67ca	-0.21523967
68	0xbce67dd0	-0.028136164
69	0x3e1be936	0.15225682
70	0xbde555b6	-0.11197989
71	0xbe744a1a	-0.23856393
72	0x3e6b8aa4	0.23002106
73	0x3c80f22c	0.015740477
74	0xbdc9d180	-0.09854412
75	0xbd1d568b	-0.038412612
76	0x3d83053c	0.06397483
77	0x3e1ea6ac	0.15493268
78	0xbe69b52b	-0.22823016
79	0xbe0c142f	-0.13679574
80	0xbecf46cb	-0.40483698
81	0xbe5a0f80	-0.21294975
82	0xbe91503d	-0.2838153
83	0xbed56eca	-0.41686088
84	0x3eecd726	0.46257895
85	0xbe3562a8	-0.17713416
86	0x3db5261c	0.088451594
87	0x3ed25e7a	0.41087705
88	0xbe7ba17c	-0.2457332
89	0x3e1fca22	0.15604451
90	0xbe639ba2	-0.22227338
91	0xbe582a33	-0.21109848
92	0xbeda6bf1	-0.42660478
93	0xbe2cf544	-0.16890436
94	0xbe9e9f3e	-0.30980867
95	0xbea8acd9	-0.32944372
96	0x403c8c02	2.9460454
97	0xbf4043bf	-0.7510337
98	0xbeebcd2c	-0.4605497
99	0xbf1907da	-0.59777606
100	0x3ec85c8f	0.39133117
101	0x3f056578	0.52107954
102	0x403f9c82	2.9939275
103	0xbe836f5e	-0.25670904
104	0x3df61338	0.120153844
105	0xbedffd2b	-0.4374784
106	0xbe014232	-0.12622908
107	0x3f048616	0.517671
108	0x3e2b7c52	0.16746643
109	0xbe5c854c	-0.21535224
110	0x3e0949e4	0.13407093
111	0xbfa32ad2	-1.2747443
112	0x40639201	3.5557864
113	0xbf88ffca	-1.0703061
114	0xbf89ed5c	-1.0775561
115	0xbfa65f7d	-1.2997891
116	0x3e66815b	0.22510283
117	0xbe8c8e7e	-0.27452463
118	0x3f4a23d8	0.78960943
119	0xbeae079a	-0.33990175
120	0x3de3930c	0.11112031
121	0xbeffc552	-0.4995523
122	0xbf6481c4	-0.89260507
123	0x3f3b43dd	0.73150426
124	0x3d838a28	0.064228356
125	0x3e85f5d6	0.2616412
126	0xbe279b98	-0.16367948
127	0xc0270646	-2.609758
128	0x3f8f27fb	1.1184076
129	0xbd99a5f1	-0.07502354
130	0xbfbfc0df	-1.4980735
131	0xbff08296	-1.8789852
132	0x3e8ce609	0.27519253
133	0xbd58fe9b	-0.052977186
134	0x3e6b51ce	0.22980425
135	0x3f9403c7	1.1563653
136	0x3e353adc	0.17698234
137	0x3e1af715	0.15133317
138	0x3c8bb993	0.017056262
139	0x3fc322c7	1.5244988
140	0xbc699ee0	-0.01425907
141	0x3e5ba2bd	0.21448798
142	0xbf891a29	-1.0711108
143	0xbfe8fa0a	-1.8201306
144	0xbd28c6b6	-0.04120513
145	0x3e684dff	0.22686003
146	0xbea54f08	-0.3228686
147	0xbec7ed45	-0.3904821
148	0x3bd554d5	0.006510357
149	0xbc37da4c	-0.01122148
150	0x3d276aba	0.040873267
151	0xbe47e605	-0.19521339
152	0xbdcc1880	-0.099656105
153	0x3d2e1919	0.042504404
154	0xbe0019b4	-0.12509805
155	0x3d90ac7a	0.07064147
156	0xbd3577c2	-0.044303663
157	0x3e50a30a	0.20374694
158	0x3de6288e	0.11238204
159	0xbe2678e9	-0.16257061
160	0x3d840f13	0.06448188
161	0xbcecbdf7	-0.028899176
162	0xbeef637a	-0.46755582
163	0xbe24c989	-0.16092505
164	0xbe9057ad	-0.2819189
165	0xbe00b4dd	-0.12568994
166	0x3f919b58	1.1375532
167	0x3e0c2bc5	0.13688572
168	0xbd0802e0	-0.033205867
169	0xbe28cc40	-0.16484165
170	0xbe9cc391	-0.30617955
171	0xbd286fc2	-0.041122206
172	0xbefa8814	-0.48931944
173	0xbdd6e056	-0.104920074
174	0xbe05f03a	-0.1307992
175	0xbe829449	-0.25503758
176	0x3d9b0083	0.07568457
177	0xbe8a2c4f	-0.2698693
178	0xbfd53ebf	-1.6659774
179	0xc01a4f28	-2.4110813
180	0x3fc4bca3	1.5370067
181	0x3fc80658	1.5626936
182	0xbead77f7	-0.33880588
183	0x402537a8	2.581522
184	0x3e17f980	0.1484127
185	0xb7c74c78	-2.3758257e-05
186	0xbf028b79	-0.5099407
187	0x3c3ac9b9	0.0114006335
188	0x4088fc7a	4.28082
189	0x3f9153e0	1.1353722
190	0xbfb1eecb	-1.3900999
191	0xbfc67906	-1.5505683
192	0xbeb49488	-0.3526957
193	0x3e94b033	0.2904068
194	0xbf429bf4	-0.76019216
195	0xbfad5a8a	-1.3543255
196	0x3d8d36c2	0.0689521
197	0x3e378693	0.1792243
198	0x3e69d856	0.22836432
199	0x3fbeac27	1.4896287
200	0xbc612d00	-0.013743639
201	0x3e91f89a	0.2850998
202	0xbc03b51c	-0.008038785
203	0x3f1dc0ae	0.6162213
204	0xbc65ee06	-0.0140338
205	0xbe464825	-0.19363458
206	0xbee8bfc2	-0.454588
207	0xbf259369	-0.64678055
208	0x3eda836b	0.4267839
209	0xbea56dd0	-0.32310343
210	0xbdb1f91c	-0.08690092
211	0xbd401dad	-0.0469033
212	0xbe306efa	-0.17229834
213	0xbe59d588	-0.21272862
214	0xbeaa34e7	-0.33243486
215	0xbe543568	-0.20723498
216	0x3ca02a50	0.019551426
217	0x3e4ba32e	0.19886467
218	0xbeef578c	-0.4674648
219	0x3dd5520d	0.104160406
220	0x3ba384c0	0.0049901903
221	0x3eb2ae6a	0.34898692
222	0xbeaa52f8	-0.33266425
223	0xbeaf3c58	-0.34225726
224	0x40049774	2.071744
225	0xbfa49c47	-1.2860192
226	0xbfb5c15c	-1.4199634
227	0xbfff1026	-1.9926803
228	0x3fda0ec0	1.7035751
229	0x3faae964	1.3352475
230	0x409c2676	4.879695
231	0x3f4a3ca3	0.78998774
232	0x3e70e792	0.23525837
233	0xbf1f56b9	-0.62241703
234	0xbf76687e	-0.9625319
235	0xbe06df74	-0.13171178
236	0x408ba878	4.364315
237	0x3d03411b	0.03204451
238	0xbf6e589c	-0.9310396
239	0xc00aae98	-2.1669064
240	0x3d441efb	0.047881108
241	0xbe05d1c4	-0.130683
242	0xbf992161	-1.1963311
243	0xbfd6fa58	-1.6795149
244	0x3f24ab6f	0.64324087
245	0x3da737bc	0.08164927
246	0xbe38d8ce	-0.18051454
247	0x3fefbd05	1.8729559
248	0xbd6e2c20	-0.05814755
249	0xbdbd878a	-0.09254368
250	0xbf4631a7	-0.77419513
251	0xbe24c4c0	-0.16090679
252	0x3f71ab96	0.94402444
253	0x3e288a6e	0.16459057
254	0xbf3e6b02	-0.7438203
255	0xbf662f75	-0.89916164

layers.1.bias f4 [32]
0	0xbe9e974e	-0.3097481
1	0xbf66fb51	-0.9022723
2	0xbe800841	-0.25006297
3	0xbff5ab73	-1.9192947
4	0xbdc1a9ee	-0.0945624
5	0xbdd49911	-0.103807576
6	0xbfd6c6d8	-1.6779432
7	0xc031b1cb	-2.7764766
8	0xc006a57e	-2.1038508
9	0xbe5e330e	-0.21699163
10	0xbea1fd16	-0.31638402
11	0xc02d3566	-2.7063842
12	0xbfc41ad1	-1.5320684
13	0xbf0b60b6	-0.54444444
14	0xc0676a24	-3.6158533
15	0xbfc45580	-1.5338593
16	0xc0479738	-3.1186047
17	0x3de23d08	0.11046797
18	0xbcee72a1	-0.029107394
19	0xc00bc225	-2.1837246
20	0xbd3283d0	-0.043582737
21	0xbf4ac74a	-0.7921034
22	0xbeeaa452	-0.4582849
23	0xbf3d2774	-0.73888326
24	0x3fc75e8c	1.5575728
25	0xbfc93d48	-1.5721827
26	0xbe5da4aa	-0.21644846
27	0xc0381558	-2.8763027
28	0xbf49b156	-0.7878622
29	0xbeb5cf35	-0.3550965
30	0x403e3381	2.9718935
31	0xbf4bdf6f	-0.7963781

layers.2.weight f4 [32, 32]
0	0x3e1301de	0.14356181
1	0xbd4580af	-0.048218425
2	0x3e2d3498	0.16914594
3	0xbe0faf75	-0.14031775
4	0x3cf5e1fb	0.030014982
5	0xbda1317e	-0.07870768
6	0xbd44c8b1	-0.048042957
7	0x3e057aaa	0.13035074
8	0xb9d7a325	-0.00041129548
9	0x3d9db0fe	0.07699774
10	0xbd886040	-0.06658983
11	0xbdafe1f9	-0.08588023
12	0x3c926dad	0.017874563
13	0xbd8017b6	-0.062545225
14	0xbe1cfb46	-0.15330228
15	0x3d7d35ab	0.06181876
16	0xbdb86f40	-0.09005594
17	0x3dbbbbd9	0.091666885
18	0xbd0bcf98	-0.034133524
19	0x3cb7b7ef	0.022426574
20	0xbe198fae	-0.14996216
21	0x3ca2ede0	0.019888818
22	0x3cc7f828	0.024410322
23	0x3d8f9cf8	0.07012361
24	0x3c4c689b	0.012476112
25	0xbe33676e	-0.17519924
26	0xbde4069d	-0.11134074
27	0x3c938a66	0.01801033
28	0x3b000718	0.0019535478
29	0xbc896af8	-0.01677464
30	0xbe0efb93	-0.13963155
31	0xbde553e2	-0.1119764
32	0xbe0299a0	-0.12753916
33	0x3e31293b	0.17300884
34	0x3e3449f0	0.1760633
35	0xbde60e27	-0.11233168
36	0xbde2455b	-0.11048385
37	0xbe665fca	-0.22497478
38	0xbf796ee3	-0.97434825
39	0x3e7bbded	0.2458417
40	0xbd849410	-0.06473553
41	0x3e25e21e	0.16199538
42	0xbdf134d0	-0.11777651
43	0xbeb3bd32	-0.35105282
44	0x3e54c48e	0.20778105
45	0x3dfd39c8	0.123645365
46	0xbe3ec1ce	-0.18628618
47	0xbd800584	-0.06251052
48	0xbed46f2d	-0.4149107
49	0xbce9f750	-0.02856031
50	0xbd5e5d43	-0.05428816
51	0x3df948be	0.121720776
52	0xbe03fa34	-0.12888414
53	0x3e20fbc7	0.15721045
54	0x3e7e7492	0.24849156
55	0xbe697442	-0.22798255
56	0xbed9d393	-0.4254423
57	0x3d06dbf5	0.03292461
58	0x3e2fdf66	0.17175063
59	0xbf1bd477	-0.6087107
60	0x3f16d2ef	0.5891561
61	0xbee91ba7	-0.4552891
62	0xbf631895	-0.88709384
63	0x3e158d76	0.14604744
64	0x3da7b3f2	0.08188619
65	0x3eae7393	0.3407255
66	0x3e07a894	0.13247901
67	0x3eebc0c6	0.46045512
68	0xbc1fcc84	-0.00975335
69	0xbdd65b51	-0.10466636
70	0x3c1876bb	0.009305651
71	0x3f944237	1.1582707
72	0xbe3a067a	-0.18166533
73	0xbd6f9599	-0.058492277
74	0x3e8d670a	0.27617675
75	0xbdeac07f	-0.11462497
76	0x3e28355c	0.16426605
77	0x3ec3ac11	0.38217214
78	0x3f889bed	1.0672585
79	0xbd1a8cd0	-0.037731946
80	0x3f0e49aa	0.5558115
81	0xbc2e89ff	-0.010653018
82	0xbb9d443e	-0.004799395
83	0xbe2af606	-0.16695413
84	0x3e03133d	0.12800308
85	0x3ea57ab3	0.32320175
86	0x3e266067	0.16247712
87	0x3ee3abd7	0.4446704
88	0xbea85efa	-0.3288496
89	0x3d91164f	0.07084333
90	0x3d8359ae	0.064135894
91	0x3eb3e078	0.35132194
92	0x3ed0b333	0.40761718
93	0xbe0c79f0	-0.1371839
94	0xbf67bd61	-0.90523344
95	0x3e926a9a	0.28596956
96	0x3dda2c88	0.10653025
97	0xbdf2dfab	-0.118590675
98	0x3d9e9dcb	0.0774494
99	0x3d1a1282	0.037615307
100	0xbdf3e53e	-0.11908959
101	0xbd5a7232	-0.05333156
102	0x3bdec0c8	0.0067978837
103	0x3df9df85	0.12200836
104	0x3e8b8ed1	0.27257398
105	0x3d4dc658	0.050237983
106	0x3dd31a99	0.103078075
107	0xbe535536	-0.20637974
108	0xbe831a1e	-0.25605863
109	0xbe0949b0	-0.13407016
110	0xbe414fc8	-0.1887809
111	0xbe0a07db	-0.13479559
112	0x3e152e7e	0.14568517
113	0xbdd78292	-0.10522951
114	0x3e16ca72	0.14725664
115	0x3d3a97b8	0.045554847
116	0xbcb8913a	-0.022530187
117	0xbe1d590f	-0.15366004
118	0xbdb4776d	-0.08811841
119	0xbea0bbbe	-0.31393236
120	0x3dd35892	0.10319628
121	0xbdefcccb	-0.11708983
122	0x3d1ea6ac	0.03873317
123	0xbe192909	-0.1495706
124	0xbef148a9	-0.47125748
125	0x3e9afbf0	0.30270338
126	0xbf104253	-0.563512
127	0xbe94fc8e	-0.29098934
128	0xbd909032	-0.07058753
129	0xbdbd908e	-0.09256087
130	0x3d88918c	0.06668386
131	0xbe44d1f4	-0.19220716
132	0xbd247205	-0.0401478
133	0xbc81355c	-0.015772514
134	0xbf0badee	-0.5456227
135	0xbe313322	-0.17304662
136	0x3e297f0e	0.16552374
137	0x3d58ca2b	0.052927177
138	0xbe77ceb5	-0.24199946
139	0xbdfb962a	-0.12284501
140	0xbde2470b	-0.110487066
141	0x3b31dee5	0.0027140912
142	0xbede2c8f	-0.4339337
143	0x3d8cc248	0.06872994
144	0xbeb425e2	-0.35185152
145	0x3e276c63	0.1634994
146	0xbdb1cc75	-0.08681575
147	0x3dc7980e	0.09745799
148	0xbe237a13	-0.15964536
149	0x3e5ef5d7	0.21773468
150	0x3cfb9403	0.030710226
151	0x3df66cdf	0.12032484
152	0xbebd483e	-0.3696918
153	0x3bdbbdf5	0.0067059943
154	0x3dd65230	0.10464895
155	0x3f17f6d3	0.59361
156	0x3e66a54c	0.22523993
157	0xbe48ce07	-0.19609843
158	0xbe86fcf0	-0.2636485
159	0xbe0537f6	-0.13009629
160	0xbe2c3045	-0.16815288
161	0x3c24ba1d	0.0100541385
162	0xbe34d6d9	-0.17660083
163	0xbd69119a	-0.05690155
164	0x3bc00590	0.005860038
165	0xbea9d0fc	-0.33167255
166	0xbf85ce06	-1.0453498
167	0xbe32f6a4	-0.17476898
168	0x3dd8d193	0.10586848
169	0xbd8e9747	-0.069624476
170	0xbc9b1a20	-0.018933356
171	0xbe08062e	-0.13283607
172	0x3d860160	0.06543231
173	0x3b179077	0.002312688
174	0xbe627769	-0.22115864
175	0x3dc4fd27	0.096185975
176	0xbe7e925b	-0.24860518
177	0xbc8d9107	-0.017281068
178	0x3e060a83	0.13089947
179	0xbdbd8e56	-0.09255664
180	0xbd83ce6e	-0.06435858
181	0x3cb1eeaf	0.021720259
182	0xbcdcb5bf	-0.026942132
183	0xbe6e796a	-0.23288503
184	0x3f3f8b95	0.7482236
185	0xba9818a1	-0.001160402
186	0xbd90f30d	-0.07077608
187	0xbf126991	-0.5719233
188	0x3fa8b1a4	1.3179212
189	0xc038653e	-2.8811793
190	0x3f5ac965	0.85463554
191	0x3e2a08b7	0.16604887
192	0xbe5b6590	-0.21425462
193	0x3ba4a771	0.0050248434
194	0xbda838c0	-0.08213949
195	0x3baa820c	0.005203491
196	0xbe0255cd	-0.12728043
197	0x3d7eaab4	0.062174514
198	0xbe74e278	-0.23914516
199	0x3e91acdf	0.28452203
200	0xbee1595f	-0.44013497
201	0x3dbb8edc	0.09158108
202	0xbe5b27c1	-0.21401884
203	0xbed038a2	-0.40668207
204	0xbdbf85a7	-0.09351664
205	0xbd90e58e	-0.07075034
206	0x3e21ea19	0.15811957
207	0xbdc6acdf	-0.09700941
208	0x3e133126	0.14374217
209	0xbe2aa99e	-0.16666266
210	0x3c3ddd7d	0.011588451
211	0xbf2766e4	-0.65391374
212	0xbe23a5fb	-0.15981285
213	0xbe8b3239	-0.27186754
214	0x3e0c01d6	0.13672575
215	0x3e447691	0.19185854
216	0xbdf592e9	-0.119909115
217	0x3d891bab	0.0669473
218	0xbe31718f	-0.17328475
219	0xbc4fc637	-0.012681535
220	0xbeb22754	-0.3479563
221	0x3f1aee9d	0.60520345
222	0xbf158600	-0.5840759
223	0x3daeb2dd	0.08530209
224	0xbdb03fed	-0.08605943
225	0xbe0a9cff	-0.13536452
226	0xbdb854ac	-0.09000525
227	0xbddc8d57	-0.10769146
228	0xbcc8f5bb	-0.024531236
229	0x3c865f75	0.01640294
230	0x3cc5af14	0.024131335
231	0xbdba5d9c	-0.09099886
232	0x3ded2d55	0.11580912
233	0xbe2d310a	-0.16913238
234	0x3e253d9c	0.16136783
235	0xbe1682ab	-0.14698283
236	0x3e13f474	0.1444872
237	0x3cc4a0c4	0.02400244
238	0xbe9af8f2	-0.30268055
239	0x3d57f7a6	0.05272641
240	0xbb89e2b8	-0.004207935
241	0x3adc8374	0.0016823844
242	0xbdd81cde	-0.10552381
243	0xbd52fc21	-0.05150998
244	0x3db7360d	0.08945856
245	0xbd782e74	-0.060591176
246	0xbb39d2d9	-0.0028354435
247	0x3e966f06	0.2938158
248	0xbe63e274	-0.22254354
249	0x3e177303	0.14789967
250	0xbcc5f83e	-0.024166223
251	0xbbd35029	-0.006448765
252	0xbe03f51a	-0.12886468
253	0xbe340ad1	-0.17582251
254	0x3d1112b5	0.03541823
255	0x3ea16e90	0.31529665

layers.2.bias f4 [32]
0	0xbe20676b	-0.15664451
1	0x3fea821d	1.8320957
2	0xc08c55d0	-4.385475
3	0x3eaf760c	0.3426975
4	0xbe3c812f	-0.18408655
5	0xc0b1719f	-5.54512
6	0x3ecae2f3	0.39626274
7	0xbe5a078d	-0.21291943
8	0x3ed0e340	0.40798378
9	0xbf31b58a	-0.6941763
10	0xbf0919a9	-0.5355478
11	0x3faf76ce	1.3708131
12	0x3f190ff7	0.59789985
13	0xc04f2cd0	-3.2371101
14	0x3f720b74	0.94548726
15	0x3c3b6eb4	0.011439968
16	0x3e537487	0.2064992
17	0x3f7487ba	0.955196
18	0xbfefd85c	-1.8737903
19	0x4082a362	4.082444
20	0xbebff9f1	-0.37495378
21	0x3cf7cf19	0.030250119
22	0xbe1eb1bc	-0.15497488
23	0xc0620b78	-3.53195
24	0xbdc0c7d9	-0.09413118
25	0xbe2b96d9	-0.16756763
26	0x3f1f1f9f	0.62157625
27	0x3f5db3cd	0.8660248
28	0x3fcea072	1.6142714
29	0x402d1438	2.704359
30	0x3eec997f	0.46210858
31	0xbee0535e	-0.43813604

layers.3.weight f4 [16, 32]
0	0xbce506d9	-0.027957367
1	0x3f14dc08	0.5814824
2	0xbe964832	-0.29351956
3	0xbe5e1030	-0.21685863
4	0xbeabfcd7	-0.3359134
5	0x3df8c79e	0.12147449
6	0x3e2e5716	0.17025408
7	0x3d8f3d52	0.06994118
8	0x3c757e2a	0.014983693
9	0x3e1dd7c1	0.15414335
10	0xbe1a79f9	-0.15085591
11	0xbd72487a	-0.05915115
12	0x3e9c0fc2	0.30480772
13	0xbe860cd1	-0.26181653
14	0x3ee45a5e	0.44600195
15	0xbe2b8d4d	-0.1675312
16	0xbcc3da7d	-0.023907894
17	0xbdb36c2e	-0.08760868
18	0xbf8a8907	-1.0823067
19	0x3e351c02	0.17686465
20	0xbeb4f7f6	-0.3534543
21	0x3c85d890	0.016338617
22	0xbf19df53	-0.6010639
23	0xbe2aae61	-0.16668083
24	0xbe0b64fb	-0.1361274
25	0xba542393	-0.0008092459
26	0x3d77b659	0.060476635
27	0x3dd1c3c5	0.10242418
28	0x3f1ac192	0.60451615
29	0x3ee27abf	0.44234273
30	0xbd9df5e1	-0.07712913
31	0x3b92c70e	0.0044792956
32	0x3b8b8a45	0.0042584264
33	0xbf4dfc64	-0.8046324
34	0xbf672325	-0.90288
35	0x3d23fdef	0.04003709
36	0x3f16e217	0.58938736
37	0xbf4f8608	-0.8106389
38	0xbea2002d	-0.3164076
39	0xbd26770b	-0.040640872
40	0xbd825d0f	-0.06365406
41	0xbf1b8ff1	-0.6076651
42	0x3c1caf9e	0.009563355
43	0xbea1985f	-0.31561562
44	0xbe65bc30	-0.22435069
45	0xbf16c780	-0.5889816
46	0x3e03b1a0	0.12860727
47	0x3e2d79d9	0.16941012
48	0xbee8ca0e	-0.45466655
49	0xbe20eb0c	-0.15714663
50	0x3eb2e6fe	0.34941858
51	0x3e19b579	0.15010633
52	0xbdae7bf2	-0.085197344
53	0xbd8c6dc3	-0.06856873
54	0x3ea57dbc	0.3232249
55	0xbef3064e	-0.47465748
56	0x3b9389c8	0.004502509
57	0xbe35ba3a	-0.17746821
58	0x3e8ef693	0.27922496
59	0x3e3e4ffb	0.18585198
60	0xbf1b8d92	-0.60762894
61	0x3e52fd3f	0.20604418
62	0xbe9aaa12	-0.30207878
63	0x3e367ebe	0.17821786
64	0x3e1ceb36	0.15324101
65	0xbca9b3c1	-0.020715596
66	0xbd9c556e	-0.07633482
67	0xbd4aabe6	-0.04948034
68	0xbe129355	-0.14314015
69	0xbe2b64af	-0.16737626
70	0xbc71968d	-0.014745367
71	0xbc45074e	-0.012025667
72	0xbd9ad57d	-0.07560251
73	0xbd709210	-0.058733046
74	0xbd735890	-0.05941063
75	0x3e4cc75e	0.19997928
76	0x3eb048c8	0.34430528
77	0xbc94d451	-0.018167647
78	0xbcd95b56	-0.02653281
79	0x3d953330	0.07285154
80	0xbe1f5e9e	-0.15563437
81	0xbcf5119a	-0.02991562
82	0xbe1164f7	-0.14198671
83	0xbe4d67ff	-0.20059203
84	0xbea3b716	-0.3197562
85	0x3d3ae4b9	0.045628283
86	0x3e9030ae	0.2816214
87	0x3e2c40a1	0.16821529
88	0xbd81e91b	-0.063432895
89	0xbddbc667	-0.107312016
90	0x3dd1efaa	0.102507904
91	0x3cb99a5b	0.02265661
92	0xbcd6f128	-0.02623804
93	0xbec13c9c	-0.37741554
94	0x3e6960d0	0.22790837
95	0xbe5b5426	-0.21418819
96	0xbd5b9c6c	-0.053615972
97	0x3ebb8c75	0.36630598
98	0xbf78eb83	-0.9723436
99	0xbdfe625e	-0.12421106
100	0x3edb7fbc	0.4287089
101	0x3f554b97	0.83318466
102	0x3db3864f	0.08765852
103	0xbd1bd96b	-0.038049143
104	0xbd802fc8	-0.062591136
105	0xbf24015e	-0.64064586
106	0x3d836546	0.06415801
107	0xbe925909	-0.28583553
108	0x3e5ef38d	0.21772595
109	0xbf4193f2	-0.7561637
110	0xbf00825a	-0.501989
111	0x3e93be77	0.2885625
112	0x3dc94a61	0.0982864
113	0xbed19827	-0.40936396
114	0x3d563e06	0.052305244
115	0xbf71d8cd	-0.94471437
116	0xbd358bda	-0.044322826
117	0x3df94b26	0.121725366
118	0xbec07fb9	-0.37597445
119	0xbe886ff1	-0.26647905
120	0xbdfbcefd	-0.12295339
121	0x3dc1d458	0.094643295
122	0xbedd0a6a	-0.43172008
123	0xbf0f05f5	-0.55868465
124	0x3ef5f36c	0.4803728
125	0x3e76c253	0.24097566
126	0xbd9b88c2	-0.07594444
127	0x3e8a18d3	0.26972064
128	0xbcb81697	-0.02247171
129	0xbf520436	-0.82037675
130	0xbf96b867	-1.1775025
131	0x3e8d64b2	0.27615887
132	0x3e59cb6e	0.21269009
133	0xbfabf07e	-1.3432767
134	0xbecf149e	-0.40445417
135	0x3ea477ee	0.3212275
136	0x3ea0fb0f	0.31441543
137	0xbe66ae26	-0.2252737
138	0xbe44545e	-0.19172809
139	0x3e571214	0.2100299
140	0xbf867d49	-1.0506984
141	0xbf48c7a7	-0.78429645
142	0x3f452168	0.770041
143	0xbb79fe17	-0.0038145834
144	0xbe4d2b70	-0.20036101
145	0x3e7e78cf	0.24850772
146	0x3eaf51bf	0.34242055
147	0x3f4c0d61	0.79707915
148	0x3edb8a9c	0.42879188
149	0x3cf84899	0.030308055
150	0xbe0655b7	-0.13118635
151	0xbf27f3e7	-0.6560654
152	0x3e2f61e3	0.17127185
153	0x3c7825ff	0.015145778
154	0x3d5f2f96	0.05448874
155	0x3f10c466	0.5654968
156	0xbf4e4a56	-0.8058218
157	0xbfe1252e	-1.7589471
158	0x3ec4c75f	0.38433358
159	0x3f0c50c5	0.54810745
160	0x3e257fc0	0.16162014
161	0x3d57d0ea	0.05268947
162	0x3d0326e3	0.032019507
163	0xbd6c14ee	-0.057637148
164	0x3e1b1423	0.151444
165	0x3ca43ece	0.020049479
166	0x3df788c9	0.120866366
167	0x3ddb3fa8	0.10705501
168	0xbdb19d05	-0.08672527
169	0x3dbb14dc	0.09134838
170	0x3cead021	0.028663697
171	0xbd8d53b0	-0.06900728
172	0x3e879b38	0.2648561
173	0x3e0c0fd8	0.13677919
174	0x3dcec966	0.100970075
175	0xbcb7f00b	-0.022453329
176	0x3db88a8f	0.09010803
177	0x3cc9d54b	0.024637839
178	0xbe18fc18	-0.14939916
179	0x3d8f4a7f	0.06996631
180	0xbe04a07a	-0.12951842
181	0xbe1143f6	-0.14186081
182	0xbe16abee	-0.14714023
183	0x3e3e0387	0.18556033
184	0x3db3fc75	0.08788387
185	0x3d2c62e7	0.042086508
186	0xbe53a0b0	-0.20666766
187	0xbb6fdfb5	-0.0036601846
188	0x3dbf7267	0.093479924
189	0xbd7a6d5a	-0.061139442
190	0x3d8fa72c	0.070143074
191	0xbe41f75d	-0.18942018
192	0xbd564b0e	-0.05231767
193	0x3f4300d5	0.76173145
194	0x3f06f263	0.527136
195	0xbed45781	-0.4147301
196	0xbd14d1d1	-0.03633291
197	0xbeeb79f0	-0.45991468
198	0x3e8fba9e	0.28072065
199	0xbd91a3b0	-0.07111299
200	0x3e498454	0.19679385
201	0x3f5bd9a3	0.8587896
202	0x3d83a66f	0.06428229
203	0x3df1892a	0.1179374
204	0x3f7e4353	0.9932148
205	0x3ed43fce	0.4145493
206	0x3ef5fe3f	0.48045537
207	0x3ecea92d	0.40363446
208	0x3f137a4a	0.57608473
209	0xbf312fff	-0.6921386
210	0xbd19bcbe	-0.037533514
211	0x3f4b8f08	0.79515123
212	0xbfa9bea5	-1.3261305
213	0x3e4bcd36	0.199025
214	0xbeef6172	-0.46754032
215	0x3f5dcb62	0.8663846
216	0xbd070b86	-0.032969974
217	0xbe13bcad	-0.14427443
218	0x3d645798	0.0557476
219	0xbf32a978	-0.6978984
220	0x3e9209c8	0.28523088
221	0xbf028d65	-0.50997
222	0x3ea5cb0b	0.32381472
223	0xbef7bb51	-0.483851
224	0xbd166bcc	-0.036723897
225	0x3e81ad8e	0.25327724
226	0x3e1c1141	0.15240957
227	0x3ccb63e5	0.024827907
228	0x3c28368b	0.01026691
229	0x3c4b7ad8	0.012419425
230	0x3d9518b7	0.072801046
231	0xbd07b5f1	-0.033132497
232	0xbdcc8bc1	-0.099875934
233	0x3e33e09c	0.1756615
234	0x3e051f30	0.13000178
235	0x3d3ce229	0.04611412
236	0x3dedd783	0.11613371
237	0x3e502931	0.20328213
238	0xbd9e8800	-0.07740784
239	0x3e4974d9	0.1967348
240	0x3e6e7db1	0.23290135
241	0xbe2a50e3	-0.16632418
242	0xbe0e731f	-0.13911103
243	0x3e1a4e90	0.15069032
244	0xbdd6673a	-0.10468908
245	0x3e259a5f	0.16172169
246	0xbe71a48b	-0.23597924
247	0x3e1ff4dc	0.1562075
248	0x3da0ebfa	0.07857509
249	0x3e1b5b8d	0.15171643
250	0x3cfad06d	0.030616963
251	0x3c1561c5	0.009117548
252	0xbda34c75	-0.079735674
253	0x3c7e9c8e	0.015540255
254	0x3c9ab658	0.018885776
255	0xbe086f86	-0.13323793

layers.3.bias f4 [16]
0	0x3fdb9aef	1.7156657
1	0x4010c06e	2.261745
2	0xbe6c2708	-0.23061764
3	0xc002bc33	-2.0427368
4	0x401ca40d	2.4475129
5	0xbcad945d	-0.02118891
6	0xbd54ded3	-0.051970314
7	0xbe767152	-0.24066666
8	0x3f1db700	0.6160736
9	0xbf4a4c91	-0.7902308
10	0x3f4a4c45	0.7902263
11	0x3f34d552	0.70638
12	0x3ed067e0	0.4070425
13	0xc0040cbb	-2.063277
14	0xbdef4ed2	-0.11684956
15	0xbf2b3d79	-0.66890675

layers.4.weight f4 [1, 16]
0	0xbefa00e0	-0.48828793
1	0x3f211d9f	0.62935823
2	0xbeff989b	-0.49921116
3	0x3f12829c	0.57230544
4	0x3f4ab163	0.7917692
5	0xbd527818	-0.05138406
6	0xbf1b3e23	-0.6064169
7	0xbd9df5f8	-0.077129304
8	0xbe89482f	-0.26812884
9	0x3e638bd3	0.22221307
10	0xbe77cc83	-0.24199109
11	0xbe7a3664	-0.24434811
12	0x3f8ae79c	1.0851932
13	0xbeeae2ed	-0.45876256
14	0xbdf70fb4	-0.12063542
15	0x3ef2a88a	0.4739421
